4class_model New Algo New Dataset 4.pth (torch, 304285 bytes, 42 tensors)

bn2d.weight f4 [32]
000000 b3 2d 1a 3f 0c 15 e3 3e 5a 3a 3b 3f 33 de 82 3f
       0.6022598 0.44351995 0.7313591 1.022406
000010 20 18 48 3f 61 f8 21 3f 8f 9b 0c 3f 55 b7 37 3f
       0.7816181 0.6326962 0.54924864 0.7176412
000020 0e 27 15 3f 86 22 65 3f 6b 57 5b 3f 03 87 7c 3f
       0.5826272 0.89505804 0.85680264 0.9864351
000030 50 35 41 3f fe 8e 4c 3f ef b5 5c 3f 55 4c 65 3f
       0.75471973 0.7990569 0.8621511 0.895696
000040 82 f4 57 3f 8d 03 56 3f 19 31 39 3f f4 f7 53 3f
       0.84357464 0.8359917 0.7234054 0.8280022
000050 b8 fb 61 3f 8e ad 96 3f 10 f5 65 3f c2 dd 54 3f
       0.8827472 1.1771715 0.8982706 0.83150876
000060 69 7e 4c 3f 62 fc 39 3f da 0e 56 3f 28 d3 27 3f
       0.79880387 0.7265073 0.8361641 0.65556574
000070 02 0b 33 3f 09 39 31 3f 50 08 42 3f b9 ae e6 3e
       0.6993867 0.69227654 0.75793934 0.45055178

bn2d.bias f4 [32]
000000 3b c8 24 be f0 60 5f bd 8b d1 5f be a5 75 a6 bc
       -0.16092007 -0.054535806 -0.21857278 -0.02031977
000010 0d 1a 32 be 42 ec 09 be d3 d6 6c be 22 d7 3c be
       -0.1739275 -0.13469031 -0.23128824 -0.18441442
000020 80 19 99 bd 48 8e 07 bd ad 38 4a 3d 5e 32 db 3d
       -0.07475567 -0.033094674 0.049370456 0.10702966
000030 16 91 a1 bd 2d 77 39 bd 39 8c d1 bd f8 3e 0b bd
       -0.07889001 -0.04527967 -0.102318235 -0.0339956
000040 e2 05 a2 bc 60 df aa bd 69 7f 91 bd 38 23 80 bb
       -0.019778196 -0.08343387 -0.0710438 -0.0039104484
000050 f9 1c 9d bd be 18 2e 3e 34 e9 18 bc 6c 0f 07 be
       -0.07671542 0.17001626 -0.009332944 -0.13189477
000060 67 14 3b bd b0 6b 95 bd 26 0c 15 b9 67 3c 6c bd
       -0.045673754 -0.072959304 -0.00014214273 -0.05767479
000070 bc fa 16 3d b9 6c c6 bd 08 3a a0 bd 42 6b 59 bc
       0.036860213 -0.09688706 -0.078235686 -0.013270201

bn2d.running_mean f4 [32]
000000 de 36 af 3d 05 b3 1b 3e cb 1c 4f 3e f6 1a e5 3e
       0.08555387 0.1520501 0.20225827 0.44747132
000010 4a 40 2e 3e 50 89 ef 3d b7 3d 06 3e 81 5a 30 3e
       0.17016712 0.11696112 0.1310948 0.17222025
000020 c4 ae 34 3e 7e 1f b8 3e 07 cb b2 3e db 63 d3 3e
       0.17644793 0.35961527 0.34920523 0.4128712
000030 b7 5e 62 3e 65 4c 91 3e f0 28 6e 3e b5 11 96 3e
       0.22106443 0.28378597 0.23257804 0.29310384
000040 41 58 89 3e bb 0a b1 3e 1a d7 98 3e 8a 20 84 3e
       0.26825145 0.345785 0.2985161 0.25806075
000050 ca e4 c0 3e f1 fd 43 3f 32 4b a3 3e e3 a5 92 3e
       0.37674552 0.7655936 0.31893307 0.28642187
000060 06 a0 d3 3e 2a c6 fa 3d 56 af 45 3e 72 60 69 3e
       0.41333026 0.12244828 0.19305167 0.22790697
000070 0a 21 26 3e bc 50 1f 3e 4d 98 86 3e ea 94 b2 3d
       0.16223541 0.15558141 0.2628807 0.08719809

bn2d.running_var f4 [32]
000000 01 96 a8 3d 83 f2 cb 3d e6 ec 40 3e 40 34 45 3f
       0.08231736 0.09958365 0.1884037 0.7703285
000010 05 24 51 3e 60 e4 83 3d 36 2f b5 3d 4d d8 1d 3e
       0.20423897 0.064400434 0.088468954 0.15414543
000020 ef c6 15 3e 86 f2 f2 3e 49 83 94 3e 30 3a cd 3e
       0.14626668 0.47450656 0.29006413 0.40083456
000030 c3 1b 39 3e 4a d0 85 3e 2b c6 65 3e 49 ba ba 3e
       0.18076997 0.26135474 0.22438876 0.3647025
000040 a1 dc 80 3e dd b1 d2 3e 30 0b cf 3e ca cd 33 3e
       0.25168326 0.41151324 0.40438223 0.17558971
000050 c2 27 2f 3f c3 12 0a 40 90 89 8d 3e 78 3b c5 3e
       0.6842004 2.1573951 0.27644014 0.38521934
000060 e4 4e 0e 3f a1 fa 0e 3e 2e b2 83 3e 69 48 0f 3e
       0.5558913 0.13962795 0.25721878 0.13992466
000070 dd 14 02 3e 9c c0 26 3e 9a 22 ca 3e b5 0b 36 3d
       0.12703271 0.16284412 0.39479524 0.04444476

bn2d_d2.weight f4 [16]
000000 0e 47 18 3f 6d d7 3f 3f 34 a4 f8 3e 70 9a 36 3f
       0.5948342 0.7493809 0.48562777 0.713294
000010 33 0e 4e 3f b3 53 47 3f 24 30 26 3f f7 79 5c 3f
       0.80490416 0.7786209 0.64917207 0.86123604
000020 31 17 15 3f cd 4d 3d 3f 8c af 2f 3f eb d1 23 3f
       0.5823851 0.7394684 0.6862724 0.63992184
000030 5d b9 46 3f 01 5f 2b 3f c5 9f 0d 3f e0 23 32 3f
       0.7762659 0.6694184 0.55321914 0.6958599

bn2d_d2.bias f4 [16]
000000 dd ef 35 be b8 14 11 3e a3 e5 94 bd 43 8b 48 3d
       -0.17767282 0.1416806 -0.07270362 0.048960935
000010 39 c3 1c 3d 70 7d c7 bd 61 bf 87 bd 17 d9 ee 3d
       0.038272116 -0.09740722 -0.066282995 0.116625
000020 42 bc b1 3c d2 b3 15 3d 7c a9 d1 3d f5 05 1b bd
       0.021696214 0.036548443 0.10237405 -0.037847478
000030 df 7e 81 bd 29 96 27 be 46 e7 ca bc ae be b9 3d
       -0.06323027 -0.16365875 -0.024768483 0.090695724

bn2d_d2.running_mean f4 [16]
000000 0f 69 3e 3e 68 cc 31 3e b9 f8 6e 3e 2a b5 68 3e
       0.18594764 0.17363131 0.23337068 0.22725359
000010 14 15 92 3e 3a 8c 92 3e 37 1e 95 3e a2 31 a9 3e
       0.28531706 0.2862261 0.29124615 0.3304568
000020 81 24 b8 3d b8 51 8b 3e e7 c8 98 3e a2 d0 18 3e
       0.089913376 0.27210784 0.29840776 0.14923337
000030 8f c2 36 3e 68 a7 65 3e 66 9e 1d 3e 40 c4 4a 3e
       0.17847656 0.22427142 0.15392455 0.19801426

bn2d_d2.running_var f4 [16]
000000 b4 13 54 3e be 5d 29 3e 70 b6 2e 3e 46 3a c1 3e
       0.20710641 0.16539666 0.17061782 0.37739772
000010 bc 8b 7c 3e b5 b4 bf 3d 20 9c 4d 3e e5 a6 3e 3e
       0.2466268 0.09360639 0.20079088 0.18618353
000020 50 a1 dd 3d 0e 88 3a 3e 58 b1 f4 3d 11 16 ce 3d
       0.108217835 0.18215963 0.11947888 0.100628026
000030 fa 75 b6 3d 9a c9 1a 3e fc aa 13 3e 56 ea 1e 3e
       0.08909221 0.15115967 0.14420694 0.1551908

bn2d_d4.weight f4 [8]
000000 36 79 0d 3f c1 20 3b 3f 1e 30 f1 3e 99 dc 70 3f
       0.5526308 0.73096853 0.47107023 0.94086605
000010 c5 c1 81 3c 13 fc 75 3f 93 4f 2b 3f 0d 2d 39 3f
       0.015839467 0.9608776 0.66918296 0.7233437

bn2d_d4.bias f4 [8]
000000 25 9c 60 bc ee 9b e0 3d 3d 2e a6 bd 5e c6 44 be
       -0.013709103 0.10967241 -0.08114288 -0.19216296
000010 c8 92 32 3c b6 b4 3e 3d 19 4f b1 bd bd d4 4e be
       0.010899253 0.046559058 -0.08657665 -0.2019834

bn2d_d4.running_mean f4 [8]
000000 e4 16 b8 3a f5 55 fc 3a 18 0c 22 3a f1 7d 89 3e
       0.0014044908 0.0019251691 0.00061816117 0.26853898
000010 81 43 28 2b 8d a1 be 3d 8c 82 c8 3e 86 b4 8f 3c
       5.977927e-13 0.09308157 0.391621 0.017542135

bn2d_d4.running_var f4 [8]
000000 a2 57 9e 39 30 a5 07 3a ad 97 b2 38 3d 9a 68 3c
       0.000302014 0.0005174456 8.515953e-05 0.0141969295
000010 ba 31 7b 1f 33 c9 99 3b 60 85 9b 3c b0 c6 5b 3b
       5.319245e-20 0.0046931743 0.018984497 0.0033535175

bn1d_8.weight f4 [16]
000000 00 00 80 3f 00 00 80 3f 00 00 80 3f 00 00 80 3f
       1.0 1.0 1.0 1.0
000010 00 00 80 3f 00 00 80 3f 00 00 80 3f 00 00 80 3f
       1.0 1.0 1.0 1.0
000020 00 00 80 3f 00 00 80 3f 00 00 80 3f 00 00 80 3f
       1.0 1.0 1.0 1.0
000030 00 00 80 3f 00 00 80 3f 00 00 80 3f 00 00 80 3f
       1.0 1.0 1.0 1.0

bn1d_8.bias f4 [16]
000000 00 00 00 00 00 00 00 00 00 00 00 00 00 00 00 00
       0.0 0.0 0.0 0.0
000010 00 00 00 00 00 00 00 00 00 00 00 00 00 00 00 00
       0.0 0.0 0.0 0.0
000020 00 00 00 00 00 00 00 00 00 00 00 00 00 00 00 00
       0.0 0.0 0.0 0.0
000030 00 00 00 00 00 00 00 00 00 00 00 00 00 00 00 00
       0.0 0.0 0.0 0.0

bn1d_8.running_mean f4 [16]
000000 00 00 00 00 00 00 00 00 00 00 00 00 00 00 00 00
       0.0 0.0 0.0 0.0
000010 00 00 00 00 00 00 00 00 00 00 00 00 00 00 00 00
       0.0 0.0 0.0 0.0
000020 00 00 00 00 00 00 00 00 00 00 00 00 00 00 00 00
       0.0 0.0 0.0 0.0
000030 00 00 00 00 00 00 00 00 00 00 00 00 00 00 00 00
       0.0 0.0 0.0 0.0

bn1d_8.running_var f4 [16]
000000 00 00 80 3f 00 00 80 3f 00 00 80 3f 00 00 80 3f
       1.0 1.0 1.0 1.0
000010 00 00 80 3f 00 00 80 3f 00 00 80 3f 00 00 80 3f
       1.0 1.0 1.0 1.0
000020 00 00 80 3f 00 00 80 3f 00 00 80 3f 00 00 80 3f
       1.0 1.0 1.0 1.0
000030 00 00 80 3f 00 00 80 3f 00 00 80 3f 00 00 80 3f
       1.0 1.0 1.0 1.0

bn1d_64.weight f4 [64]
000000 f9 f6 24 b9 2a 6c 24 38 10 59 59 3f 98 85 ff 38
       -0.00015732263 3.9201383e-05 0.84901524 0.00012184231
000010 4a 42 1a 3a 1c c7 9d 37 49 1d 4b b9 8b db b2 3a
       0.00058845116 1.8808576e-05 -0.00019370498 0.0013645751
000020 1f 1c 51 3f c4 2d ed 39 26 ee 40 3f 63 78 30 39
       0.81683534 0.0004523826 0.75363386 0.00016829516
000030 27 b7 ea 3e a6 f1 5e 3f c3 92 70 39 b8 2c 1a 3f
       0.4584286 0.87087476 0.00022942857 0.60224485
000040 b1 17 37 3f 6d 63 67 39 ea b4 13 3e ac c2 59 3f
       0.71520525 0.00022066916 0.14424482 0.8506267
000050 4a 4e 60 3f 96 28 13 b8 8e 75 9e bc 8d 2b fa 3e
       0.8761946 -3.508533e-05 -0.019343164 0.48861352
000060 bf b7 00 3b dc 20 34 3f 45 ab 49 3f 9b 1a 4c 3a
       0.0019640771 0.7036264 0.7877696 0.0007785947
000070 95 04 59 3f 5b 24 d7 3a ae 7d 43 3f 80 64 4e 3b
       0.84772617 0.0016414033 0.76363647 0.0031493008
000080 c9 e7 0f 3f c9 9f 0b 3e ce 11 0d 3f f7 94 db 3a
       0.5621305 0.13635172 0.5510529 0.0016752769
000090 e4 08 25 3d c3 b8 d9 3c ae e6 b2 3b 20 dc cf 3a
       0.040291682 0.026577359 0.005459628 0.0015858449
0000a0 fa 40 90 b8 c3 9d 82 3a f8 51 11 3f 06 36 3d 3c
       -6.878558e-05 0.000996523 0.567657 0.011548525
0000b0 0a 14 58 3d fc 1d a4 3c 90 1d 37 3f 4c 60 41 39
       0.052753486 0.020033829 0.71529484 0.00018441788
0000c0 77 01 d3 3c eb 0a 03 39 6b a7 fc 38 81 0b ee 38
       0.025757534 0.00012497201 0.000120474804 0.00011350867
0000d0 b2 f8 b1 3e ae 12 00 3c fb 38 41 b9 12 21 0d 3e
       0.34760052 0.007816954 -0.00018427141 0.13782147
0000e0 bb 82 31 3f 44 52 a4 b8 1f 9a 38 3f b1 56 3b 3f
       0.69340104 -7.8354526e-05 0.7211017 0.73179156
0000f0 82 f4 7a 3e 3a 39 02 3f 47 8e 48 3f d5 a5 d3 39
       0.24507335 0.5086857 0.783421 0.0004036861

bn1d_64.bias f4 [64]
000000 94 3c 02 3b f0 71 f0 38 99 d9 9b 3d 8f 35 ba 39
       0.0019872533 0.00011465314 0.07609863 0.0003551659
000010 34 7d c5 b8 30 05 f5 38 66 3d 6a 3a 9a 6e 3c 39
       -9.417013e-05 0.000116834766 0.00089355407 0.0001797028
000020 d0 06 ba 3d 84 28 34 3a a1 78 73 3d ba e7 89 39
       0.09083331 0.00068724924 0.059441213 0.00026303326
000030 bd b7 21 3d cd 6b 00 3c 9d 6d 43 3a 59 d8 af 3d
       0.039481867 0.007838202 0.00074549933 0.08586187
000040 fa 69 9e 3c 53 64 91 39 68 6f 85 3d f7 bd 8a 3d
       0.019337643 0.00027731303 0.0651539 0.06774514
000050 3e 4b d9 3d f0 f6 21 3a ba ae f0 3a b4 cd 1a 3e
       0.106100544 0.0006178459 0.001836262 0.15117532
000060 78 85 b1 39 2c e9 0b 3d db 5c 37 3e 60 89 c9 3a
       0.00033859513 0.034157917 0.17906515 0.0015376024
000070 3c 62 ff 3d fa 2a 46 3a 03 40 ef 3d a6 5f 14 3a
       0.124699086 0.00075595046 0.11682131 0.00056600047
000080 88 3a 60 3d 24 52 bd 3c af 01 9a 3d 7f 6c dd 3b
       0.05474332 0.023110457 0.07519852 0.0067573185
000090 f7 4e 5b 3b 51 ad 45 3a 51 86 15 3b 44 11 9d 3b
       0.0033463815 0.000754078 0.0022815655 0.004793318
0000a0 33 62 66 39 32 f9 74 3b f8 f2 16 3e 84 39 1f 3b
       0.00021971091 0.0037379977 0.14741123 0.0024295757
0000b0 45 34 8f 3b f5 bb 01 3b 6d 87 22 3e e1 d3 f5 38
       0.0043702447 0.001979587 0.15871973 0.00011721976
0000c0 b3 e1 1d 3b 73 50 2f 38 5e 25 aa 39 87 e9 b0 39
       0.0024090826 4.1798176e-05 0.00032452767 0.00033743327
0000d0 d4 90 95 3d fb e4 04 3b 1a 9d dc 39 f1 0c 01 3d
       0.073030144 0.0020278085 0.0004207872 0.031506483
0000e0 01 f5 bc 3d 0e 16 6c 39 24 d3 30 3d 90 10 e6 3d
       0.09226418 0.0002251493 0.04317011 0.11233628
0000f0 be 30 1c 3d 7a eb 92 3b b6 71 ec 3d 39 aa 1f 3a
       0.03813242 0.0044836374 0.11545126 0.0006090734

bn1d_64.running_mean f4 [64]
000000 5a 22 db bf ca 20 fe 3f a4 fd 00 bf 53 73 2a 40
       -1.7119858 1.9853756 -0.50387025 2.6632888
000010 58 51 bc bf b1 0c bb 3e 2e 2a f8 bf 1e 12 1d bf
       -1.4712324 0.3653312 -1.9387872 -0.6135577
000020 ad 78 db 3f d7 03 12 40 76 79 71 3f 79 52 e7 3f
       1.7146202 2.2814844 0.9432596 1.8072044
000030 42 5e d5 3e 0c 28 e6 bf 5c f8 52 40 3c 7c 09 c0
       0.41673476 -1.7980971 3.2964087 -2.1482077
000040 68 15 e6 bf 1a 9d e2 3f 51 75 33 c0 f4 f9 d2 3f
       -1.7975283 1.7704194 -2.8040354 1.648253
000050 00 78 bf 3e fc 38 d0 bf f0 13 93 bf 0d 7a d7 bf
       0.3739624 -1.626739 -1.149046 -1.6834122
000060 6b 01 bf 3f 81 b8 2e 3f 21 29 4a 40 d3 12 03 40
       1.4922308 0.6825028 3.1587603 2.048024
000070 a3 6f 6c 40 b6 b3 f7 3f 40 5b 35 40 bb 8c cb 3e
       3.6943138 1.9351718 2.8336945 0.39755806
000080 93 f4 40 bf 93 19 a1 3f d4 42 23 3d a6 92 be bf
       -0.7537319 1.258593 0.039858654 -1.4888504
000090 4e 0c 4f 3f 00 3f 45 3a 64 ab b1 3f 53 f9 c3 bf
       0.8087815 0.00075243413 1.3880429 -1.5310463
0000a0 82 e8 04 c0 69 33 d9 3f ff 64 c3 3f bf 69 03 c0
       -2.0766912 1.6968814 1.5265197 -2.0533292
0000b0 4c 68 a1 3d bc 11 87 3f d0 81 66 40 e0 4a c5 bc
       0.07881221 1.0552287 3.6016731 -0.024083555
0000c0 19 c6 49 3e be 2e 9e 3f 16 7c 21 40 d7 62 3b 40
       0.19704475 1.2358015 2.5231986 2.9279077
0000d0 2f af 17 40 b1 e6 d7 bf ca 8c e9 bf d7 48 0b c0
       2.3700674 -1.6867276 -1.824609 -2.1763208
0000e0 65 2b 87 3f 81 05 0b c0 5e aa ca 3e 02 52 98 3e
       1.0560118 -2.172211 0.39583105 0.29750067
0000f0 49 b7 5e 3f f0 2e 08 c0 51 68 c7 3f 71 88 cf 3e
       0.8699842 -2.1278648 1.557871 0.40533784

bn1d_64.running_var f4 [64]
000000 55 42 6d 40 8b db 57 40 23 ba 09 42 9b ae 89 40
       3.7071736 3.3727748 34.431774 4.302564
000010 c5 71 a8 40 a5 79 3d 40 b0 d4 a9 40 f1 ea 75 40
       5.263888 2.9605496 5.307213 3.8424647
000020 d4 28 fd 41 3e d2 6a 40 0b d8 ff 41 4e 76 9a 40
       31.644936 3.6690822 31.98049 4.8269415
000030 ac 59 4c 41 72 d7 f8 41 22 8c bb 40 19 fc 92 41
       12.771893 31.105198 5.860856 18.373095
000040 bf ca ad 41 3e 87 8e 40 cb 9b 25 41 6c a5 fa 41
       21.723997 4.454009 10.350535 31.330772
000050 ef e1 df 41 63 01 64 40 59 1b 98 40 36 6a 50 41
       27.98532 3.5625846 4.7533383 13.02593
000060 9b 61 3d 40 88 a6 76 41 36 ec 88 41 b2 cf 96 40
       2.9590824 15.415657 17.115337 4.7128534
000070 dc d3 ea 41 78 d6 85 40 5d 13 be 41 a6 c7 34 40
       29.353447 4.1824303 23.759455 2.8246856
000080 ee c5 b7 41 5a 00 07 41 4b 51 aa 41 02 51 9c 40
       22.971645 8.437586 21.289694 4.8848886
000090 27 d0 85 40 c5 84 9d 40 53 68 af 40 1b af 74 40
       4.181659 4.922457 5.481485 3.8231876
0000a0 8a 8d 6e 40 13 f8 49 40 b9 2d 44 41 c6 1a b5 40
       3.7273889 3.1557662 12.261163 5.6595182
0000b0 97 90 96 40 15 b4 86 40 92 95 c5 41 c5 84 ae 40
       4.70515 4.2094827 24.698032 5.453707
0000c0 2c 76 81 40 cd c8 f0 3f 1f 64 aa 40 50 59 88 40
       4.0456753 1.881128 5.324722 4.2609024
0000d0 03 27 33 41 59 a5 a4 40 f5 7d 96 40 70 f1 13 41
       11.197024 5.145184 4.7028756 9.246445
0000e0 b7 80 9b 41 d2 82 6b 40 70 02 8f 41 12 9e 7c 41
       19.437849 3.6798596 17.87619 15.788591
0000f0 f3 38 08 41 3b de 77 41 db 8b b1 41 af f8 cc 40
       8.513904 15.4917555 22.193289 6.405357

line1.weight f4 [64, 800]
000000 a5 4a 6a 33 f1 1b 98 b4 b3 a6 9b b5 d0 41 26 b5
       5.455026e-08 -2.8332536e-07 -1.1596916e-06 -6.193559e-07
000010 b7 28 89 b5 1e dd 26 ac f9 b4 ef b5 73 d2 4b 35
       -1.0219145e-06 -2.3712764e-12 -1.7859558e-06 7.5929637e-07
000020 f6 21 45 b5 57 d4 cc b4 b8 8b 78 b0 f3 86 f7 b4
       -7.343764e-07 -3.815246e-07 -9.0420427e-10 -4.6105524e-07
000030 f5 2d e5 b5 e6 89 14 b5 fc aa 04 b6 47 80 d3 31
       -1.7075205e-06 -5.5334965e-07 -1.9769059e-06 6.1554917e-09
000040 40 0b a0 b5 92 0e f9 b5 10 5e 08 b2 c6 af 36 b6
       -1.1924203e-06 -1.8556186e-06 -7.937629e-09 -2.7222427e-06
000050 30 f8 5f 2f 4b 30 9c b5 c3 a5 27 b5 b6 09 e2 b4
       2.0369906e-10 -1.1636961e-06 -6.2453563e-07 -4.2102846e-07
000060 83 df 85 b5 8b 57 14 b5 79 7e 3c b5 66 2d 2e b5
       -9.974323e-07 -5.526169e-07 -7.02195e-07 -6.4886115e-07
000070 3e 33 2e b5 db bf 01 b4 fc 18 88 b4 c1 8e 4a b4
       -6.489462e-07 -1.2083858e-07 -2.5350153e-07 -1.886465e-07
000080 0b 8b 23 b3 e8 eb b2 b4 f1 38 3d b4 54 29 5d b3
       -3.8077854e-08 -3.3326728e-07 -1.7622712e-07 -5.149316e-08
000090 a5 23 61 b5 3a 52 d7 b4 f6 dc 88 b4 90 17 0f b4
       -8.38709e-07 -4.0106698e-07 -2.5492744e-07 -1.3326485e-07
0000a0 9d 78 97 b3 46 4b f2 b4 ef a9 db b4 c0 44 dc b4
       -7.053425e-08 -4.513078e-07 -4.0915572e-07 -4.1028215e-07
0000b0 85 d6 c1 b4 e5 02 78 b3 00 6c 12 b5 1a b2 cc b3
       -3.6105135e-07 -5.7744632e-08 -5.45464e-07 -9.531887e-08
0000c0 a9 f0 17 b3 bc 6a 88 33 94 ac 8a b5 ce 08 8a b5
       -3.5376306e-08 6.3524084e-08 -1.0332028e-06 -1.0284364e-06
0000d0 56 b2 a8 b5 76 f1 b5 b5 f0 f0 1e b5 6d 09 e5 b5
       -1.2568878e-06 -1.3555825e-06 -5.9210197e-07 -1.7064573e-06
0000e0 c1 76 da b5 09 15 1d b6 d7 b0 31 b6 60 9c 28 b5
       -1.6276828e-06 -2.3407067e-06 -2.647799e-06 -6.281243e-07
0000f0 c2 49 b5 b5 ac e3 99 b5 82 33 bc b5 65 7b 24 b5
       -1.3507017e-06 -1.146565e-06 -1.4022082e-06 -6.1274324e-07
000100 97 8f 63 34 25 88 eb b5 06 2e d1 b5 94 cd 5a b5
       2.119326e-07 -1.7548488e-06 -1.5585108e-06 -8.1510484e-07
000110 79 6c e6 b5 0a 82 1a b4 63 b9 5d b3 fb c4 86 b4
       -1.7167905e-06 -1.4389676e-07 -5.162418e-08 -2.5102767e-07
000120 44 03 58 b4 00 22 93 31 e9 6e 50 33 78 7a ec b1
       -2.0117756e-07 4.2821284e-09 4.8529646e-08 -6.882427e-09
000130 7c 76 b8 30 c9 61 13 33 b1 6f e0 33 e5 7d 25 b3
       1.3421437e-09 3.431504e-08 1.04511294e-07 -3.8531557e-08
000140 0c 0d fb b2 8a 2e c0 b5 74 f4 12 b6 4e cc 0c b6
       -2.9226179e-08 -1.4318659e-06 -2.1897986e-06 -2.0980547e-06
000150 63 32 f6 b5 2c 7f 2d b4 f9 b3 69 b5 21 1e ad b5
       -1.8343093e-06 -1.6158145e-07 -8.706116e-07 -1.2898273e-06
000160 25 08 eb b5 d0 24 5a b5 cd 1e b1 32 f0 56 cb b5
       -1.7511235e-06 -8.12649e-07 2.0619519e-08 -1.5149981e-06
000170 b2 f0 16 b6 25 c1 83 b5 a0 f7 6f b5 7e d6 9a b5
       -2.2491845e-06 -9.816473e-07 -8.939478e-07 -1.153632e-06
000180 da 6e c4 b5 78 75 09 b6 73 6c b1 b5 33 49 0c b6
       -1.46354e-06 -2.0482967e-06 -1.321909e-06 -2.0904233e-06
000190 d9 52 9e b5 c1 25 4b b5 c6 c3 09 b4 ce b6 3d b5
       -1.1796029e-06 -7.567833e-07 -1.2830341e-07 -7.0674e-07
0001a0 2d 12 52 b3 5f f8 4d b5 44 76 b2 b5 81 f6 41 b5
       -4.8910966e-08 -7.672988e-07 -1.3296453e-06 -7.2256813e-07
0001b0 c7 6c d5 b5 f8 95 c8 b5 93 df a8 b5 ee 4f cb b5
       -1.5901395e-06 -1.4944808e-06 -1.2582044e-06 -1.5147941e-06
0001c0 eb 43 d3 b5 05 02 c0 b5 a5 be 20 b5 f9 58 f0 b5
       -1.5740492e-06 -1.4305703e-06 -5.988207e-07 -1.7907288e-06
0001d0 cd 8e 24 b6 5e af b2 b5 3a 42 0f b6 b7 61 a2 b4
       -2.4521025e-06 -1.3313072e-06 -2.134721e-06 -3.0245948e-07
0001e0 99 ff 5d b5 45 8e e5 b5 56 14 4c b5 29 46 b7 b5
       -8.270086e-07 -1.7103235e-06 -7.6025515e-07 -1.3654982e-06
0001f0 02 71 6f b5 1e 46 47 b5 22 d8 73 b5 26 e5 75 b4
       -8.9198886e-07 -7.423531e-07 -9.083907e-07 -2.2900767e-07
000200 98 e2 51 b4 27 33 83 b3 b7 c8 37 b3 63 d2 01 b5
       -1.9547076e-07 -6.1094674e-08 -4.2790557e-08 -4.83624e-07
000210 1c 48 d6 b3 83 d6 83 34 6b 9c 82 b5 56 a4 2e b5
       -9.978268e-08 2.455673e-07 -9.731278e-07 -6.505919e-07
000220 69 ae f6 b5 09 e8 c5 b5 e6 20 08 b6 92 4e 90 b4
       -1.8379188e-06 -1.4745175e-06 -2.0284729e-06 -2.6879258e-07
000230 96 6b 22 b5 69 78 4b b6 84 10 b5 b5 61 1c 14 b6
       -6.050626e-07 -3.0319445e-06 -1.3490358e-06 -2.2070237e-06
000240 ee 7a cc b5 10 f0 27 33 c7 1f 98 b5 58 69 e1 b2
       -1.5234962e-06 3.9101053e-08 -1.1334131e-06 -2.6241352e-08
000250 93 30 bf b3 3b f5 53 b5 37 fe a9 b3 2e e4 13 33
       -8.902966e-08 -7.896048e-07 -7.915917e-08 3.4433633e-08
000260 7d 91 be b3 68 c5 d5 b3 5e 08 34 b3 82 85 6b 32
       -8.8740286e-08 -9.9544934e-08 -4.1917126e-08 1.37091565e-08
000270 f4 1e b9 b5 9b 36 e1 b4 23 22 6e b5 70 5b a9 b1
       -1.3792583e-06 -4.1949247e-07 -8.8711585e-07 -4.9289426e-09
000280 1d a6 21 b0 2f f4 5c b5 03 9c 24 b5 a9 44 3c b5
       -5.880752e-10 -8.231172e-07 -6.132179e-07 -7.013537e-07
000290 12 48 06 b4 6c 30 4d ae a6 eb 30 b5 ad 0b b8 b4
       -1.2505942e-07 -4.665461e-11 -6.5908023e-07 -3.4281166e-07
0002a0 d3 b8 78 b4 a6 0e b0 b3 6d 44 96 b2 2f 43 7d b5
       -2.3164039e-07 -8.198303e-08 -1.7493415e-08 -9.434761e-07
0002b0 dc 94 75 b5 ce 36 1d b5 49 62 9a b5 e9 95 a9 b4
       -9.148623e-07 -5.856681e-07 -1.1502499e-06 -3.1587777e-07
0002c0 6f dd 6b b5 4a 94 98 b5 83 93 81 b5 a7 a0 1a b5
       -8.786655e-07 -1.136804e-06 -9.65418e-07 -5.760325e-07
0002d0 5a 00 c2 b4 22 e9 64 b5 12 9e ee 32 f7 0b 63 b5
       -3.6135572e-07 -8.527587e-07 2.7778729e-08 -8.45815e-07
0002e0 6d c2 87 b4 5e fd 8a 34 7e 6e 76 b5 10 3e 9a 33
       -2.5287173e-07 2.5888852e-07 -9.180293e-07 7.182473e-08
0002f0 1d 8e dc b5 78 f4 a0 b5 53 44 3e b5 ef f1 80 b5
       -1.6432638e-06 -1.1992079e-06 -7.087994e-07 -9.607155e-07
000300 dd 0a 8f b4 7b fe a7 b5 da 40 15 b6 4a 51 bf b3
       -2.664373e-07 -1.2516533e-06 -2.2240479e-06 -8.908917e-08
000310 a9 78 7f b5 3e 10 a9 b5 5f 1d 55 b5 a7 ef f1 b5
       -9.5170486e-07 -1.2596208e-06 -7.9391424e-07 -1.8025647e-06
000320 64 a9 ea 31 fb 58 e6 b3 aa c4 7c 33 f1 43 cb b4
       6.829554e-09 -1.0726395e-07 5.8852187e-08 -3.786113e-07
000330 20 35 27 34 e9 22 83 34 f5 09 43 b4 d1 2c 9b 33
       1.5572414e-07 2.4426052e-07 -1.8164413e-07 7.225902e-08
000340 17 5b 48 b5 c5 37 81 b3 81 37 a3 33 ff b2 18 b5
       -7.463836e-07 -6.017175e-08 7.600375e-08 -5.6884886e-07
000350 55 66 96 b4 c7 31 37 b5 9e fb 1c b4 80 7b ee 33
       -2.8014134e-07 -6.824525e-07 -1.462017e-07 1.1105203e-07
000360 6f 0a 3a b5 6f 18 92 b4 e5 79 7c b4 a0 cf 8f b3
       -6.930558e-07 -2.7212397e-07 -2.3513674e-07 -6.696723e-08
000370 05 cf cb b4 c2 9e 58 b5 69 c8 43 b4 12 ec e8 b4
       -3.7962323e-07 -8.0697293e-07 -1.8233699e-07 -4.338513e-07
000380 6b 5e 15 b5 85 01 d2 32 76 ba f7 b3 32 97 9c 33
       -5.564422e-07 2.4447909e-08 -1.1535751e-07 7.291818e-08
000390 7a ba d9 33 e2 94 46 31 64 83 b6 b5 e6 ec b1 b5
       1.013877e-07 2.8897422e-09 -1.3598296e-06 -1.3256474e-06
0003a0 33 07 04 b6 46 b8 2b b6 0a f2 d8 b5 c9 6c 40 b5
       -1.9673723e-06 -2.5588247e-06 -1.6163697e-06 -7.1683877e-07
0003b0 59 90 a1 b5 a5 11 f7 b5 8f 9a cd b5 eb ee 10 b6
       -1.2037445e-06 -1.8408069e-06 -1.5318673e-06 -2.159674e-06
0003c0 a5 c8 d6 b5 4e a3 8a b5 78 03 fd b5 51 a5 dc b5
       -1.6002638e-06 -1.0329329e-06 -1.8850978e-06 -1.6439391e-06
0003d0 63 67 19 b6 a5 61 6d b6 c6 37 04 b8 72 24 2a b6
       -2.2858956e-06 -3.5372589e-06 -3.1523196e-05 -2.5353188e-06
0003e0 91 9c 5b b6 bc 1d 1b b6 03 ae 6c b5 e7 c9 74 33
       -3.2724677e-06 -2.3114108e-06 -8.817007e-07 5.6994306e-08
0003f0 4e 92 12 b4 80 4f 84 b3 b3 4c 06 b5 86 b3 93 b5
       -1.3650535e-07 -6.16119e-08 -5.00305e-07 -1.1004602e-06

line1.bias f4 [64]
000000 7e cd b7 b4 9e ee 54 b0 52 29 ee 3a 32 77 84 32
       -3.4235921e-07 -7.7464246e-10 0.0018170273 1.5421026e-08
000010 77 30 32 b3 af dd 3c b0 74 20 99 b3 66 32 88 b4
       -4.1487933e-08 -6.8709033e-10 -7.130521e-08 -2.5368644e-07
000020 76 74 57 ba 6c a9 7f 34 73 45 0c ba 8f e8 d8 33
       -0.0008218953 2.3810361e-07 -0.0005350925 1.0100586e-07
000030 a2 a9 65 bb 60 68 6e 3a 9e a2 2f 32 dd 93 b8 3a
       -0.0035043736 0.00090945326 1.02233155e-08 0.0014082153
000040 42 97 29 b9 c9 46 47 33 a3 cd 35 3a 3b 8a 14 3b
       -0.00016173444 4.6397677e-08 0.00069352443 0.00226654
000050 a1 69 6b 3a 64 20 4e b2 18 49 83 19 52 81 1c 39
       0.00089802785 -1.1998143e-08 1.3574605e-23 0.00014925495
000060 0f ba 05 80 50 f3 ae b9 97 72 52 3b 93 cb db 34
       -5.25923e-40 -0.00033369148 0.0032111758 4.0940049e-07
000070 c5 d9 80 3b 77 c3 02 80 79 28 ad 3b 0c d4 6b a6
       0.00393221 -2.5379e-40 0.0052843657 -8.181938e-16
000080 44 8a 72 bb 78 f3 4d ba 98 85 60 ba 88 7b 7c b5
       -0.0037008682 -0.0007856409 -0.0008564829 -9.4057077e-07
000090 81 1e b4 b7 1e f0 b5 b0 2c f6 0b 14 b1 d8 20 b6
       -2.1471877e-05 -1.3237729e-09 7.0662555e-27 -2.396799e-06
0000a0 f7 3e e0 30 9e 92 95 33 56 f7 a5 3a 73 03 f9 b6
       1.6316041e-09 6.965023e-08 0.0012662213 -7.42118e-06
0000b0 2e 4d 4a b9 27 9e a9 21 cf f9 90 3b b3 96 ea 30
       -0.00019292973 1.1493748e-18 0.0044243108 1.7068572e-09
0000c0 2b 19 9a b6 91 4b 06 80 5f 07 03 33 80 ab 7e b1
       -4.5924876e-06 -5.78121e-40 3.050752e-08 -3.7059351e-09
0000d0 ff dd 68 3a 3c 42 8d b6 44 5f 39 b3 21 31 bf b9
       0.00088831777 -4.209838e-06 -4.3160313e-08 -0.00036466963
0000e0 61 82 90 3a c6 f2 27 b1 89 4c 8e 39 f1 34 58 3a
       0.0011025184 -2.44397e-09 0.00027141374 0.0008247635
0000f0 69 e0 23 ba 4b 99 0c ba 27 2d 61 3a 08 98 b0 b2
       -0.0006251396 -0.00053634186 0.0008589797 -2.0558232e-08

line2.weight f4 [4, 64]
000000 57 e0 6e 3a 83 52 74 39 e0 2c 18 bf af 25 33 3a
       0.0009112409 0.00023300391 -0.59443474 0.00068339234
000010 47 6f ce 37 48 48 2b 39 c0 a3 63 39 57 1c 20 39
       2.4608931e-05 0.00016334758 0.00021709409 0.00015269346
000020 58 71 6b be d7 8b ad 3a 1b 0c 17 bf e5 80 5e 39
       -0.22992456 0.0013240528 -0.59002846 0.00021219587
000030 52 a2 75 be a5 53 05 bf 8e 79 91 3a 87 bf e0 bd
       -0.23987702 -0.52080756 0.0011098848 -0.10974031
000040 11 6c 2d be 31 34 c4 b8 01 76 e2 3d 59 b5 fc be
       -0.16935755 -9.35573e-05 0.11057664 -0.49357107
000050 35 75 db bd 55 ff 74 3a 65 11 9e bb 14 11 92 3e
       -0.10715715 0.0009345909 -0.004823851 0.28528655
000060 5c 49 34 3b 9b e6 58 bd 8d 6e f2 3e 53 5e 17 3b
       0.0027509546 -0.052954298 0.4734997 0.0023096993
000070 7e 9f c2 3e b8 a4 29 3b c1 d7 ba 3e fc 45 f6 3a
       0.38012308 0.0025885534 0.36492732 0.0018789168
000080 4f 01 af be f0 77 25 bd 92 2a 4b be 29 81 0a 3c
       -0.34180686 -0.040397584 -0.19840458 0.008453646
000090 01 e4 e8 bb b0 84 0a bc fe 1c be ba 6f 6b 01 3c
       -0.0071072583 -0.008454487 -0.001450449 0.007899149
0000a0 3b 10 df 38 35 fc 8c 3b e2 d7 a6 3e c2 bd 56 3a
       0.00010636492 0.0043025264 0.3258658 0.0008191728
0000b0 6e a9 73 bc 5c b2 88 bb 94 78 b6 3d fa bb 9e b7
       -0.014871938 -0.0041716527 0.08909717 -1.8922601e-05
0000c0 73 3f ad bb de 9e 8f 39 c7 dd e9 39 4b b7 2c 39
       -0.0052871048 0.0002739345 0.0004460646 0.0001647148
0000d0 b7 32 78 3e e9 f9 d1 39 cd f3 9c 39 b5 fa 6b bd
       0.24238096 0.00040049784 0.00029936284 -0.05761214
0000e0 10 3e 97 bd ae ac 3a 39 38 0a fd bc c4 46 04 3f
       -0.07384884 0.0001780267 -0.030888662 0.5167048
0000f0 e4 08 d5 bc 76 16 17 be d3 f9 0e 3f d7 fb d1 b8
       -0.026005216 -0.14754662 0.5584995 -0.000100128054
000100 72 74 86 3b 4c 2a d9 38 f5 eb 43 bc b8 d7 3f 3a
       0.004103237 0.00010355245 -0.011958112 0.00073182164
000110 35 07 c1 b6 ed fd b0 38 1d e1 06 3b 72 f9 9f b6
       -5.7526872e-06 8.439631e-05 0.0020580955 -4.7676085e-06
000120 74 f3 09 3f 0c d2 d2 b8 d2 a5 8e 3e 90 ba 09 3b
       0.53887105 -0.000100527046 0.27860886 0.002101574
000130 4e 51 a9 3e 27 5e 89 bd 35 bc 33 3a 10 f6 a3 be
       0.33069843 -0.06707411 0.0006856353 -0.32023668
000140 6b 59 91 be 2d 4d b2 3a 04 bf 2f bd f0 e6 eb bd
       -0.28388533 0.0013603322 -0.042906776 -0.11518657
000150 af 54 03 3f f2 a7 a8 37 27 1b f8 b6 d3 e8 06 be
       0.5130109 2.0105366e-05 -7.394137e-06 -0.13174753
000160 48 86 d9 b9 4a 9f e6 be 02 de 7b be 7f c1 b9 3b
       -0.00041489513 -0.45043403 -0.24596408 0.0056688185
000170 b4 a7 18 bf e0 10 d7 b9 5b 8c ea be d1 03 cf b8
       -0.59630895 -0.00041020568 -0.45810208 -9.87124e-05
000180 32 fa c9 3e 82 7d d6 3d 7b 15 d0 3e f8 f0 6a 39
       0.39448696 0.104731575 0.40641388 0.00022405747
000190 27 ca 1f b9 db 68 77 b8 90 10 7c 3b 10 6a 32 bb
       -0.00015238729 -5.8987043e-05 0.003846202 -0.0027223863
0001a0 a5 f2 86 38 78 ac a0 3a b3 bd 50 be d0 c3 c6 b9
       6.434814e-05 0.0012258431 -0.20384865 -0.00037911395
0001b0 78 ce 92 ba 01 28 9d b7 36 e2 d5 be e0 df af 39
       -0.0011200448 -1.8734487e-05 -0.41774148 0.000335454
0001c0 8d a8 27 b9 7d fc fd b7 b5 a1 82 3a 2e 0b b8 38
       -0.00015989151 -3.0277524e-05 0.0009966405 8.775886e-05
0001d0 b6 a8 d7 3a 02 fb 5a b9 bf dc b8 3a 3f b6 c8 3d
       0.0016453478 -0.00020883608 0.0014103873 0.09800386
0001e0 39 b6 d0 3e 00 f0 9b 39 61 4e b9 be 46 19 ae be
       0.40764025 0.00029742718 -0.3619261 -0.34003657
0001f0 4d a2 34 3e fa 48 3e be d4 c7 46 bc 5b e8 d4 39
       0.17640038 -0.18582526 -0.012132604 0.0004060891
000200 63 4d 78 ba c9 64 a5 37 99 91 0c bd 3b 0c 0e 38
       -0.0009471981 1.9716465e-05 -0.03431854 3.386683e-05
000210 b8 01 e1 b5 47 2a 16 36 05 2f 3c b8 82 1d c9 36
       -1.6764307e-06 2.237635e-06 -4.4866483e-05 5.993702e-06
000220 1f f5 ba be 48 48 94 b7 2e b9 a0 3e 6e 37 87 37
       -0.36515138 -1.7676633e-05 0.3139128 1.6119066e-05
000230 ea c8 c8 bd 98 f1 1a 3f 7b 32 bc 38 70 d1 c0 bd
       -0.09803946 0.6052489 8.973941e-05 -0.09414947
000240 dc d1 06 3f 58 42 f2 b4 5b 3a 9a 3c bc 56 41 bb
       0.5266397 -4.5124284e-07 0.018826654 -0.002950116
000250 13 de e7 be d3 ba 0b 37 37 3e 0f b8 4b 61 93 3d
       -0.45286617 8.328544e-06 -3.41518e-05 0.071962915
000260 5c e5 06 b9 c6 33 e8 3e fc 92 df be 18 ad 92 b9
       -0.00012864679 0.45352 -0.43666828 -0.00027976255
000270 5e 6f b1 be 08 46 06 b9 e3 3f c8 be 24 68 b4 b8
       -0.3465528 -0.00012805325 -0.39111242 -8.6024666e-05
000280 72 23 8d bd 9b a6 8a bc ac c2 28 be 82 5a 1c bb
       -0.06891526 -0.016925147 -0.16480511 -0.0023857658
000290 6d ee 50 ba cc f4 27 b9 f1 7c 0d b7 a1 dc d3 ba
       -0.00079700985 -0.00016017555 -8.433345e-06 -0.0016163775
0002a0 36 b2 dd 36 82 f9 16 ba 17 bd 40 bc 89 ef 0d b9
       6.6070597e-06 -0.00057592255 -0.0117638325 -0.00013536042
0002b0 ac 51 02 bb 60 cd 08 b9 ec c0 aa be e6 94 09 b6
       -0.0019885106 -0.00013046479 -0.33350313 -2.050126e-06
0002c0 f9 0b 5f b9 cd 70 27 b6 66 0b 31 38 3d f0 88 37
       -0.00021271397 -2.4950598e-06 4.2210704e-05 1.6324333e-05
0002d0 67 4c ab bd 59 c8 c2 b8 6e 7d a8 37 6f 07 a6 bc
       -0.08364182 -9.2879585e-05 2.0085568e-05 -0.020267216
0002e0 70 99 be be a8 80 9d 37 0c 47 f7 3e 1c 04 4f be
       -0.3722644 1.8775769e-05 0.48296392 -0.20216411
0002f0 c1 3f aa bd b2 57 c4 3e d1 71 8e be af ab 86 b7
       -0.08312941 0.38348156 -0.2782121 -1.6053991e-05
000300 12 13 8c b9 66 e5 17 38 b5 5e 02 3f ee ff dd 38
       -0.0002671709 3.621485e-05 0.5092576 0.00010585772
000310 22 b0 e0 39 e7 0d 30 37 2d 9e c6 37 11 fc 08 3b
       0.0004285584 1.0493654e-05 2.3677096e-05 0.0020902196
000320 8b 43 a6 be d0 af f3 b7 b8 1b fe bd c4 1e 33 38
       -0.32473406 -2.9049726e-05 -0.12407631 4.270558e-05
000330 90 13 ac bc a1 38 4d be b6 aa 31 39 af c2 c5 3e
       -0.021005422 -0.20041133 0.0001694363 0.38625094
000340 7c 6e 53 be a1 38 20 37 32 1d 35 bd c9 c5 fa 3e
       -0.20647615 9.549928e-06 -0.044217296 0.48979023
000350 b7 c2 fd be de d3 61 38 01 2e 50 3c b9 fa ad be
       -0.49562618 5.3841497e-05 0.012706281 -0.3398035
000360 cf a4 cd b8 0e 55 80 be cd 3c 10 be f8 f9 13 b7
       -9.80586e-05 -0.25064892 -0.14085694 -8.820083e-06
000370 1e d5 8b 3e 42 8a df b8 34 b6 26 3e 5f 8c 25 3c
       0.27311033 -0.00010659221 0.16280442 0.010104268
000380 cb 7f 14 bd bc a9 0b bc b6 c1 ad bd c8 78 11 bb
       -0.036254685 -0.008524355 -0.08484213 -0.0022197235
000390 18 22 e3 3c 03 b9 81 3c de bb ce b3 ec 37 8d 3c
       0.027726218 0.01583529 -9.6267954e-08 0.01723858
0003a0 79 25 a8 37 7d 3e cc b9 6e fa c4 be 21 a3 29 3c
       2.004461e-05 -0.0003895647 -0.38472313 0.010353834
0003b0 ca 27 01 3d 4b 9b 88 3c 7f b8 e9 3e b2 fb 05 36
       0.031532086 0.016675612 0.45648572 1.996505e-06
0003c0 0f f5 97 3c d8 54 a9 b6 5f 14 99 38 82 ef 1b 38
       0.01854947 -5.0464696e-06 7.299403e-05 3.717794e-05
0003d0 85 2d 53 be 2b 51 ee 3b ab 58 29 38 d4 1a 45 bc
       -0.20622833 0.0072728596 4.037532e-05 -0.012030322
0003e0 b4 7e c0 be 57 ce 12 38 43 b9 b1 be 06 42 8d be
       -0.37596667 3.500128e-05 -0.34711656 -0.27589434
0003f0 75 f5 9a bd fc c7 be bd dc d1 f5 be 5c 33 1e b6
       -0.075663485 -0.09315488 -0.48011672 -2.357373e-06

line2.bias f4 [4]
000000 75 29 b7 3d 22 d6 3c bc 99 ec c1 bd 8b 87 4e bc
       0.08943454 -0.011525663 -0.094689555 -0.012605558

conv_layer5x5_3_8.weight f4 [8, 3, 5, 5]
000000 ab fc 92 bc 6c a1 33 bc fe ee e3 3c a7 6f b5 3b
       -0.017942747 -0.010963779 0.027823921 0.0055369916
000010 fa c1 5d 3d 9b 0f cf bd 52 d8 bc bd 5d d9 95 3d
       0.05414007 -0.101103984 -0.09220947 0.073168494
000020 e7 a8 39 3d 53 f6 7f bd bf 36 0e be 08 a0 b0 3b
       0.045327093 -0.062490772 -0.13888071 0.005390171
000030 d2 69 59 3b ef 73 43 3d a2 59 6c 3d 3b 36 88 bd
       0.0033174646 0.047717985 0.057702668 -0.06650969
000040 31 0c da bc 64 80 ab bd c0 01 f7 3c 62 c2 56 3b
       -0.026617141 -0.08374098 0.030152202 0.003276967
000050 e3 c2 fc bd 9f 76 0e be 85 d4 30 be d3 47 36 be
       -0.12341859 -0.13912438 -0.1726857 -0.17800836
000060 e7 84 23 be a1 69 07 be 47 44 cc bd 2c 26 12 3d
       -0.15968667 -0.13223888 -0.0997396 0.035680935
000070 fb 7c 21 3d 34 f7 f0 bc 29 b2 f0 bd 7e 33 2d be
       0.03942583 -0.02941475 -0.11752731 -0.16914174
000080 4f 76 68 3b f4 24 b1 3c 9e ef d2 bb 6d d4 2b 3e
       0.0035470908 0.021624066 -0.006437256 0.16780253
000090 53 bd b7 3d ef 93 10 3e 6e 38 19 3e c3 28 61 3e
       0.089716576 0.14118932 0.14962932 0.21988206
0000a0 69 ef 53 3e 00 bb 46 3e 90 96 72 3e 12 1a 39 3e
       0.20696796 0.19407272 0.23690248 0.18076351
0000b0 05 c2 5c 3e 95 88 58 bd c0 fe 2e bd 21 9a 98 bd
       0.21558388 -0.05286463 -0.042723417 -0.07451273
0000c0 b9 a9 ca bd 6a cd d6 bd ef fa 8c bd 3f d0 b2 bd
       -0.09895653 -0.104883984 -0.06883799 -0.08731126
0000d0 ff b0 13 3c 3f 6e 0a bd 7a e6 6a 3d dd 87 f6 bd
       0.009014367 -0.033796545 0.057348706 -0.120376326
0000e0 92 09 f0 bd 77 ea c7 3c 51 48 68 bd 2c 23 2f bd
       -0.117205754 0.024403794 -0.05670959 -0.042758152
0000f0 c2 bc a0 3d f1 72 ac bc d6 00 31 3d 6f 01 fd 3d
       0.07848503 -0.021050902 0.043213688 0.12353789
000100 ab 14 ad 3c 40 97 71 3c f5 f1 53 3d 28 de 65 3d
       0.02112802 0.0147455335 0.05174442 0.056120068
000110 6b aa 39 3d ae 17 d3 3d 3d a0 0a be c9 62 b7 bd
       0.04532854 0.10307251 -0.13537689 -0.08954389
000120 e1 4c 2e be 97 fc 55 be 96 23 55 be b2 09 d1 bd
       -0.17021514 -0.20897137 -0.20814356 -0.10206927
000130 1a e0 d4 bd c2 28 bc bd e3 3b d0 bd 13 7d c0 bd
       -0.103943065 -0.091874614 -0.101676725 -0.09398856
000140 1f 6d d3 bd 90 92 d5 bd 2c 9a 9b bd 0a 85 71 bd
       -0.103235476 -0.10428345 -0.07597765 -0.058964767
000150 c6 ce 89 bd 64 4f 57 3d fe f7 c1 3d e9 17 ee 3c
       -0.06728892 0.052565947 0.09471129 0.029064136
000160 7d 5b 59 bd 3b 16 74 bd 91 84 10 3d 43 6c cd 3c
       -0.053065766 -0.059591513 0.035282675 0.025076037
000170 80 1a ba bd 35 e1 46 bd ce 84 46 bd b4 0e c0 3d
       -0.09087086 -0.048554618 -0.048466496 0.093778044
000180 58 a7 97 bc b0 17 0b bd da 1e 00 be 67 79 4a bd
       -0.018512413 -0.033958137 -0.12511769 -0.049432185
000190 68 2b 83 3c 97 af 86 bc c3 28 63 3d ed f0 63 3c
       0.016011909 -0.01644115 0.055458795 0.013912422
0001a0 33 5a b6 b9 ed 4b aa 3c 6d bb d0 bc 49 d9 52 3c
       -0.0003478095 0.020788157 -0.025479997 0.012869188
0001b0 77 1f 13 bd 61 97 d6 bc 4d 16 8f bd 21 1c 9b bd
       -0.03591868 -0.02619523 -0.069866754 -0.075737245
0001c0 03 99 81 3d e1 37 11 3e 7a 8a a4 3e 4e d9 60 bd
       0.06328013 0.14181472 0.321369 -0.054894738
0001d0 ea 5c 03 bd 52 4a db 3d c9 89 81 3e ea a6 85 3e
       -0.03207103 0.10707535 0.25300434 0.26103908
0001e0 aa 4f 60 bd a3 32 26 bd a3 9c 56 3d 03 8b 30 3e
       -0.054763474 -0.040575635 0.052395474 0.17240529
0001f0 28 9b 67 3e 54 b1 0a be 44 dc 19 be c4 60 c5 bd
       0.22617781 -0.13544208 -0.15025431 -0.09637597
000200 a5 1d 54 bd 97 3d e0 bd 72 ae 0c be 2f d8 1f be
       -0.051786084 -0.10949247 -0.1373842 -0.15609811
000210 c0 72 c2 bd 20 00 05 be ba 0a 15 be df fb f3 bc
       -0.09494543 -0.12988329 -0.14554873 -0.029783187
000220 36 e6 6d bd 83 1e 59 3d 11 6b 5e 3d ff 23 b2 3d
       -0.058080874 0.053007614 0.054301325 0.08698272
000230 db c7 30 bd 9c d2 80 3d 42 7d a1 bd e7 38 0a 3d
       -0.043159347 0.062901706 -0.07885219 0.033745673
000240 ce 22 34 bd d4 5f 38 bc 57 fe cf bb ff 9b e1 3a
       -0.043978505 -0.011253316 -0.0063474583 0.0017212628
000250 ad 1d 78 bd 9d 46 c6 3d 95 49 02 bd 9e 1b 8e bd
       -0.060575176 0.09681437 -0.031808455 -0.06938861
000260 14 3b c4 bd 31 c2 c5 bd 4a 6c 73 bd 7a 97 86 3c
       -0.09581581 -0.0965618 -0.059429444 0.016429652
000270 17 b3 5a bc 0a d5 e7 bd 46 b2 f2 bd 6f 31 e5 3b
       -0.013348362 -0.11319931 -0.11850409 0.0069944183
000280 13 24 49 bd b9 b6 a0 bd b7 fa 05 be 8e 58 1e be
       -0.04910667 -0.078473516 -0.13083921 -0.15463468
000290 7d 37 31 bd af 72 0a bc 74 67 70 bd 51 b6 d4 bd
       -0.04326581 -0.008450194 -0.05869241 -0.103863366
0002a0 13 57 4d bd ad 22 0b bd d4 e8 45 bd 5a 3e 3d bd
       -0.05013187 -0.033968616 -0.048317745 -0.04620204
0002b0 66 27 e1 bd 35 a2 e6 bd d9 3d d4 bd 3a fa a6 bc
       -0.10993843 -0.11261407 -0.10363359 -0.02038299
0002c0 42 d9 a1 3c cb 02 65 3d 60 34 99 3d f2 ad 55 bd
       0.019756917 0.055910867 0.07480693 -0.05216784
0002d0 63 17 53 bd b5 6f b4 3d 6c 3d 0d 3e 27 5e 41 3e
       -0.051535975 0.08810369 0.13792962 0.18883573
0002e0 7b 29 ad 3d 67 60 cf bc 85 e3 bc 3d 4a 8c 83 3e
       0.084551774 -0.025314523 0.092230834 0.2569297
0002f0 06 f6 4b 3e 49 f6 0d 3e f0 30 9c bd 57 e5 ce bc
       0.19918069 0.13863482 -0.076265216 -0.025255842
000300 cc d0 cd 3c 7d c0 f1 3d cc 19 01 bd fd 2e 3e bd
       0.025123976 0.11804292 -0.031518742 -0.04643153
000310 97 01 24 bd 68 56 bc bd 23 f7 b0 bd 32 71 95 bd
       -0.04004058 -0.09196168 -0.086408876 -0.07296981
000320 6b 06 bf 3c 9d bb 07 bc 35 d7 c2 bd a4 f7 30 3d
       0.02331849 -0.008284477 -0.09513704 0.04320492
000330 a1 10 1f bd 2f 44 2d 3d a3 a5 37 3d 17 cd 3b bd
       -0.038834218 0.042301353 0.044835698 -0.045849886
000340 ac bc 90 3d 23 af 92 3d 8e 27 60 bd 9a 8b 92 3d
       0.07067236 0.07162311 -0.054725222 0.07155533
000350 ee a9 88 bd f7 09 58 3d 08 48 54 bd 68 a5 86 bd
       -0.066730365 0.05274388 -0.051826507 -0.065745175
000360 af c3 77 3d 3d a3 8d bd 27 e2 aa bd c5 50 92 3b
       0.060489353 -0.06915901 -0.083439164 0.004465195
000370 b1 27 84 bd 1c 6d a8 bd 67 34 4b be 38 ec 45 be
       -0.06452883 -0.08223936 -0.19844209 -0.19328392
000380 f5 83 2f be 72 4d c7 3d b6 54 51 3d 63 71 cb 3d
       -0.17140181 0.097315684 0.051106177 0.09933736
000390 ad 32 2a 3d 81 df 43 3d 73 7a f6 3d 7c 6a a8 3d
       0.041552234 0.04782057 0.12035074 0.08223435
0003a0 8a 6a 0e 3d 63 90 95 3d ad 1b 55 3d 25 91 16 3d
       0.034769572 0.0730293 0.052028347 0.036759514
0003b0 f6 bd 1d 3e 73 f7 9f 3d 47 a2 40 3d 7b a6 9a 3d
       0.15404496 0.07810869 0.04702976 0.07551285
0003c0 da e2 27 3c 36 61 9a 3a 72 58 73 3d cc 19 8f 3d
       0.010246957 0.0011778239 0.05941052 0.06987342
0003d0 5f d1 b8 3d 8c aa a7 3c 2b e8 46 bd 49 1b 3e 3d
       0.09024309 0.020467065 -0.048561256 0.04641274
0003e0 58 88 9d 3c 87 6d 70 3d a6 e1 6a be d3 a3 89 be
       0.019230053 0.058698203 -0.2293764 -0.268828
0003f0 00 53 a2 be 4d 0d 92 be 5a 76 fe bd 97 47 94 bd
       -0.3170395 -0.28525773 -0.124249175 -0.07240217

conv_layer5x5_3_8.bias f4 [8]
000000 79 ec 13 3d 7b 82 4f 3b 1d 5f 22 3d 28 c4 d5 3d
       0.03611419 0.0031663466 0.03964149 0.104378045
000010 1b 14 f5 b9 1c 41 41 3d e7 47 b6 3d ca a7 12 3d
       -0.0004674502 0.047181234 0.08900433 0.035804547

conv_layer3x3_8_16.weight f4 [16, 8, 3, 3]
000000 66 ed 1a bd 66 0e 00 bd b7 64 c8 bb 38 fa 30 bb
       -0.037824057 -0.03126373 -0.006115522 -0.002700461
000010 a3 54 aa bd a8 f4 17 bd 81 68 b1 3d c8 ef 79 bd
       -0.083169244 -0.037098557 0.08662511 -0.06101969
000020 27 7d ce bd 0d bc 95 3d 92 39 b9 3d b0 b9 42 bd
       -0.10082465 0.073112585 0.09044184 -0.047540367
000030 f3 76 7f bd f7 85 d9 3d 4e 59 45 bc 1f 2a e4 bd
       -0.0623693 0.10621255 -0.012045218 -0.111408465
000040 40 aa cd 3d d1 2f cf 3d a1 4b 18 bc 79 de 5f bd
       0.10042238 0.10116542 -0.009295375 -0.054655526
000050 ca 9d 20 3a b4 2d e1 bd e0 a5 50 bd 68 c6 b7 bd
       0.0006127028 -0.10995045 -0.05093944 -0.0897339
000060 eb 2d 13 3d fc 95 86 3d 0e 6c 51 bd 41 e9 e8 bd
       0.035932463 0.06571576 -0.05112844 -0.11372615
000070 19 16 28 bc 46 88 38 bc 44 06 31 3d 80 1c ac bc
       -0.010259175 -0.011262959 0.043218866 -0.021009684
000080 62 ac ce bc d3 24 a4 bd 84 29 43 3c 63 28 88 3c
       -0.025228683 -0.08014836 0.011911754 0.01662082
000090 40 e0 47 3d f7 31 ce 3c 68 b8 03 3d 0e 36 a6 3d
       0.048797846 0.02517031 0.032158285 0.08115779
0000a0 3c 6d 7b 3d bf 9d e7 3d 22 91 0a bc 1f c9 bd bd
       0.06138347 0.113093846 -0.008457454 -0.092668764
0000b0 f7 f0 b0 3d ec 0d bc bc 26 94 71 3c de de e3 3c
       0.086397104 -0.022955857 0.014744794 0.027816232
0000c0 05 39 e6 3d d8 eb f8 3c 8e 1c 75 bd 46 d4 a5 3c
       0.11241344 0.030385897 -0.059841685 0.020242821
0000d0 72 83 ac bd 09 f2 83 3d 31 4a 76 bd 07 c8 52 bb
       -0.08423509 0.06442649 -0.06012935 -0.0032162683
0000e0 b7 c8 ad bd 1b dc 86 3d d4 00 fc bc d0 51 02 bd
       -0.08485549 0.065849505 -0.030762114 -0.031816304
0000f0 9c 85 a4 3c 00 70 d7 bc 36 fc 5c 3d 03 75 d7 bc
       0.020083241 -0.026298523 0.053951465 -0.026300913
000100 3d 76 8d 3c 0c a6 97 3b 49 c1 0f 3d ad 8e 4a bc
       0.017268294 0.0046279486 0.03509644 -0.012363118
000110 e1 d2 8a 3d 98 9a 9b bc 42 4a 18 3d c1 13 a0 3c
       0.06778503 -0.018994614 0.037180193 0.01954067
000120 33 b2 2a bc e3 f4 a0 bd 39 dc 7c bd 7a 12 67 bd
       -0.010418463 -0.078592084 -0.06173346 -0.056414105
000130 62 28 ad 3d 79 48 08 3c a9 c7 c1 bd ea 05 15 3d
       0.08454968 0.00831806 -0.0946191 0.036382593
000140 df 22 e7 bc d1 62 eb 3d a9 27 c5 bc 98 d2 e9 3b
       -0.02821487 0.11493457 -0.024066763 0.0071357004
000150 90 76 29 3d af 33 f0 bc 74 59 9b bd 7b 2a bd 3d
       0.041372836 -0.02932152 -0.07585421 0.09236618
000160 70 0a ab 3d ab e7 21 3d 99 3a 89 3b b8 88 b0 bd
       0.083516 0.039527576 0.0041878936 -0.08619827
000170 62 34 dd 3c 8c 9a e9 3d 91 1b bb bd 1d 01 b1 3c
       0.027002517 0.114064306 -0.09136117 0.021606976
000180 87 4c 0a 3d a1 08 ce 3b 01 cb 84 bd 1e a7 8a bd
       0.03376439 0.0062876497 -0.064840324 -0.06770156
000190 90 63 8c bd 91 36 82 bd ad 27 b7 3d 9b 26 f1 bc
       -0.068549275 -0.06358064 0.089431144 -0.029437354
0001a0 53 52 9b 3d f9 62 68 3d 68 da d4 3d 07 c4 f1 bc
       0.075840615 0.056735013 0.1039322 -0.029512418
0001b0 c8 ae 71 bd 4d 45 d6 bd 60 5f 45 3d ae 19 37 3d
       -0.059004575 -0.10462437 0.04818666 0.044702224
0001c0 78 7a d0 3d 90 27 88 3d ec 39 e4 bd 57 44 d4 3d
       0.10179609 0.06648171 -0.1114386 0.10364597
0001d0 4a f8 ef bc f6 5e ed bc 0b 6e ef 3d 00 f4 45 bd
       -0.029293198 -0.028975945 0.11690911 -0.0483284
0001e0 16 0b e3 3c 70 f9 d3 bd cf 6b 29 3c 8a 9a e1 3c
       0.027715247 -0.10350311 0.010340645 0.02753951
0001f0 b1 cc 87 bd bc 53 84 bd 4d ce b6 bd bb 78 9f 3d
       -0.06630839 -0.064612836 -0.089260675 0.077866994
000200 e8 c7 43 bc 2c 96 c6 3d 55 b5 05 3d 8d 6c b2 bd
       -0.011949517 0.09696612 0.032643635 -0.08712111
000210 2d a4 55 bc dc 5e ad bd e0 9a bb 3d 12 16 df 3b
       -0.013039631 -0.084653586 0.091603994 0.006808051
000220 2e db 9b 3c ca 2d ef 3d 0c cd 58 bc ae ac 65 3d
       0.019025411 0.116786554 -0.013232481 0.056072883
000230 bd 2b d8 bd 18 bd 4b bd c8 db dd bd 14 91 8d bd
       -0.105552174 -0.04974088 -0.108329356 -0.06912437
000240 7f 46 bc bd b4 f6 10 bd 79 7c e9 bd c5 73 48 3d
       -0.091931336 -0.035391524 -0.114006944 0.04893853
000250 47 0d bb 3d 8e 81 7d bc 4a db a5 bd 98 74 6a bd
       0.09133392 -0.015472783 -0.08098467 -0.0572401
000260 76 a6 78 3b 39 fb 7f 3d 9f e3 95 3c 73 91 a3 bb
       0.0037941015 0.062495444 0.018297015 -0.004991704
000270 14 1b a1 bd fa 26 03 bd ff 66 e9 3a 7e fb d6 bd
       -0.07866493 -0.032019593 0.0017807184 -0.10497187
000280 fc 3c 11 bd 00 a3 a9 3d 36 06 17 bd 38 51 be bd
       -0.03545855 0.08283043 -0.036871158 -0.09292835
000290 5c 6e 23 3d 98 70 20 3c 86 b4 6e 3c 92 18 2d bd
       0.03990017 0.009792469 0.014569407 -0.04225976
0002a0 86 3c 1d bd 52 aa 79 bd 97 db a8 3d c9 2d 87 bd
       -0.038387798 -0.060953446 0.082450084 -0.0660053
0002b0 cf f4 94 3d 79 34 bf bd f1 07 92 3d 5c 47 21 bd
       0.07273256 -0.0933618 0.07130421 -0.039374694
0002c0 62 8c 01 bd 7b 89 8e bc be 28 f1 3d a9 a3 dc bc
       -0.03162802 -0.01739954 0.11775349 -0.026933508
0002d0 75 b1 e4 bd 2c e1 7b bd 16 f7 cc 3d eb 51 1e bd
       -0.1116666 -0.061494038 0.100080654 -0.03865234
0002e0 20 13 76 bd 0f b3 c9 bd cc 28 ad bd 02 ca 41 bd
       -0.060076833 -0.09848606 -0.08455047 -0.04731179
0002f0 48 d1 0f 3d 37 12 31 bd 66 af d3 3d 1f 4f b8 bd
       0.035111696 -0.04323026 0.10336189 -0.08999466
000300 8d 97 9a 3d da e9 a9 bc fe cd 3e bd 98 fb 89 bd
       0.07548437 -0.020741392 -0.04658317 -0.06737441
000310 23 40 18 bd 66 36 88 bd ce 2a ce bd b4 88 c7 bd
       -0.03717054 -0.06651001 -0.10066758 -0.09742871
000320 2e ea 82 3d 92 d0 a8 bd 32 be cd bd 5f a3 b8 bd
       0.063923225 -0.08242907 -0.100460425 -0.090155356
000330 9f 70 ae bd a9 a7 96 bd 56 95 cf 3d d1 bd df 3d
       -0.085175745 -0.073561974 0.101359054 0.109248765
000340 ef 76 ef 3d 9e 1b 9e bc 79 78 43 3d 4f e5 66 bd
       0.11692607 -0.019300278 0.047722314 -0.05637103
000350 5c 29 08 bc 05 07 f0 bd 65 5d e1 3d 5e 8f 8b bc
       -0.008310642 -0.11720089 0.11004142 -0.017036136
000360 0e 45 09 3d d6 a7 85 3c 17 54 89 3d 2b c0 cc 3d
       0.03351312 0.016315382 0.06705492 0.09997591
000370 9d c5 a9 3c 93 5d ea 3d 0f cc 26 3d 86 8e 02 bd
       0.020724112 0.11443629 0.04072195 -0.031874202
000380 cd e3 71 bd f7 fa 96 bd d1 29 7f 3d c7 d3 e2 bd
       -0.05905514 -0.073720865 0.06229574 -0.110755496
000390 18 53 1e 3d 3e 3c d4 3d 3f cc b9 3c 35 bc 8a 3c
       0.038653463 0.10363053 0.0226804 0.016935447
0003a0 c1 cb 21 bd 2f a8 5d 3d 6d 4a a4 bd 25 47 5b 3c
       -0.039500955 0.05411547 -0.08022008 0.013383661
0003b0 0f 92 eb 3d b2 7e ef 3d 9c 47 0c bd d9 f2 c7 bd
       0.11502468 0.11694087 -0.03424798 -0.097631164
0003c0 f7 18 bd bd ec 20 4f 3d c7 3f 38 3d f4 d1 19 3c
       -0.09233277 0.050568506 0.044982698 0.009388436
0003d0 07 5a a2 bd e6 15 80 3c 98 89 c1 3d ed e7 9e 3d
       -0.079273276 0.015635442 0.09450072 0.0775908
0003e0 eb c3 76 bc a1 0b cd 3d 8b 1d aa bd b1 9b e4 3d
       -0.015061359 0.10011984 -0.08306416 0.11162508
0003f0 18 47 7a 3d a5 a4 81 3c 11 6d 01 bd 0e 17 e6 bc
       0.061102957 0.015825579 -0.031598154 -0.028087165

conv_layer3x3_8_16.bias f4 [16]
000000 b8 5a 9b 3d 61 b8 db 3d f2 37 df bd c4 66 c2 3c
       0.075856626 0.10728527 -0.108993426 0.023730643
000010 d1 08 d1 3d 25 de a5 3c 17 18 53 3d 79 a0 e3 bd
       0.1020676 0.020247528 0.051536646 -0.11114592
000020 4c 50 af 3d 9b 9a 84 3d dc 3b 8e bd 6b ba 77 bd
       0.08560237 0.06474801 -0.06945011 -0.060480516
000030 18 bc 9b bd a2 ce 9d bd 79 83 c8 bb 25 6f 03 3d
       -0.076042354 -0.07705428 -0.0061191884 0.032088418
